deepq-learning/exercise/checkpoint.pth (torch_old, 20933 bytes, 6 tensors)

hidden1.weight f4 [64, 8]
000000 c3 7d 5a 3e 6c 74 74 3e 41 84 cf 3e 3d 03 ae 3d
       0.21337037 0.23872536 0.4053059 0.084967114
000010 ed f3 1d 3f df f0 89 3e 2f ca 18 3c 13 1f d3 3e
       0.61700326 0.26941583 0.009325548 0.41234645
000020 fb f0 b1 3d 49 60 f5 3e e4 47 9b be f0 a9 20 3e
       0.086885415 0.47925022 -0.30328286 0.15689826
000030 65 ac 97 3f 4d 56 20 bf 02 c1 19 bf 66 67 85 3e
       1.1849486 -0.62631685 -0.6006013 0.2605545
000040 78 bf d3 3c af 4d 10 3f c0 14 02 bf 6f 64 42 bf
       0.025848135 0.56368536 -0.5081291 -0.759345
000050 92 9e a7 bc 5a 43 e7 3c f2 27 2a 3e ee 87 8b 3e
       -0.020461354 0.028230358 0.166168 0.27252144
000060 5e ca f3 bc 07 21 d4 be ad 44 35 3f f9 48 41 be
       -0.029759582 -0.41431448 0.70807916 -0.18875493
000070 34 11 80 bf 25 52 fe be 64 31 6a bc 6d b4 f3 3e
       -1.000525 -0.49672046 -0.014294002 0.4759859
000080 3e 5a 31 3e e5 96 0b bf dc 6f 42 bf 7a ae c8 3f
       0.17319581 -0.5452712 -0.75951934 1.5678246
000090 82 0d 20 3f 9d 60 fa 3e 4d 6d 89 3e cb 1b a7 3e
       0.6252061 0.48901835 0.26841202 0.32638392
0000a0 b7 74 94 3d 58 f8 17 bd ea 72 8d 3e a4 0f 8c be
       0.07248824 -0.037102073 0.27626735 -0.27355683
0000b0 79 b3 57 bf 31 7c c1 be 5b 7f eb 3e af 35 c7 3e
       -0.8425823 -0.37790063 0.45995602 0.38908145
0000c0 dd 1a 4b be a3 33 bf bf 19 9f ed 3e 7e 53 c3 3f
       -0.19834466 -1.4937633 0.46410444 1.5259855
0000d0 33 b3 0f bf 90 5d 19 be 22 e5 2c 3f 66 ab b5 be
       -0.5613281 -0.14977098 0.6753713 -0.3548233
0000e0 36 83 0c 3e 8d fa 27 bf 58 40 41 be d3 31 6a bf
       0.13721928 -0.65616685 -0.18872201 -0.91482276
0000f0 d3 a3 2a 3f 53 8e 9b 3e e4 7a bd be f2 6a 68 3c
       0.66656226 0.30382022 -0.3700782 0.014185654
000100 cb 97 dd 3d e9 47 d1 3e 3f 83 13 bf 72 fc 93 3e
       0.10819968 0.40875176 -0.5762214 0.28903538
000110 dc 66 13 3f 91 e0 97 3e be cd 0f bd 2e 8d 82 bf
       0.57578826 0.29663518 -0.03510832 -1.0199335
000120 50 ef ae 3e 6c 0a 0c 3f 68 05 e4 3e 37 24 54 3f
       0.34166956 0.547034 0.44535375 0.8286776
000130 41 4f 5a be cd 64 30 bf 79 d6 1b 3d a7 a8 19 3e
       -0.21319295 -0.6890381 0.038046334 0.15005742
000140 0e 48 c0 be 34 dc 2d 3f d5 2f 32 3f 7f 8a 11 c0
       -0.37554973 0.6791413 0.69604236 -2.2740781
000150 0b cc 78 be 85 c4 88 be 46 d3 bc 3e 2c 9d 24 be
       -0.24296586 -0.26712433 0.3687994 -0.16075581
000160 a0 22 48 be 48 7e 86 3e 53 ec 37 3e 2e 81 34 be
       -0.19544458 0.2626822 0.17961244 -0.17627403
000170 d4 72 04 3f 5f 19 bc 3e 53 e0 61 bf 1c a6 5a bf
       0.51737714 0.36738107 -0.88232917 -0.8540971
000180 9d 2e de bd a9 9d 3f 3f 29 fa ef 3e 4e 7c 86 3e
       -0.108487345 0.74849945 0.46870545 0.26266712
000190 9c 21 29 bf a4 e9 50 3f 76 e4 51 3d 9e 05 30 bf
       -0.6606691 0.8160651 0.051243268 -0.6875857
0001a0 49 bc be be 91 ec 10 c0 58 b0 a5 bf b1 45 5f bf
       -0.37253025 -2.2644389 -1.2944441 -0.87215716
0001b0 69 cb 12 3f 16 d9 ea 3d 3d 91 81 3d a9 fc c6 3d
       0.5734163 0.11467187 0.0632653 0.0971616
0001c0 b2 da 0e be 75 2e 28 3f fb a8 e4 3e 78 58 a5 bf
       -0.13950613 0.6569589 0.44660172 -1.2917624
0001d0 a8 76 a5 be b4 c6 34 be 00 a5 b2 3e ae 8d c3 3d
       -0.3231709 -0.17653924 0.3489151 0.09548508
0001e0 91 f8 c0 3d ae 1a d1 3c 18 bf 1f 3e a9 f3 80 bd
       0.0942241 0.025525417 0.1560024 -0.062964745
0001f0 65 0f 69 3f 26 11 91 be 23 9f 48 bf 5a 77 10 bf
       0.91039115 -0.28333396 -0.78367823 -0.56432116
000200 fe 83 29 be 57 1c 0c be 62 00 82 3d 36 e3 64 be
       -0.16554257 -0.13682686 0.06347729 -0.22352299
000210 83 ca 14 bf 54 f5 60 be be af e8 3e 5c 87 ce 3d
       -0.5812151 -0.21968585 0.4544658 0.100844115
000220 0f df 50 be 80 fc 60 bf 10 39 34 bf 15 65 cd 3f
       -0.2039759 -0.87885284 -0.7039957 1.6046473
000230 77 28 b5 3e ea 9f 8a 3f 28 3f 2f 3f 65 d8 9e be
       0.35382435 1.0830052 0.68455744 -0.3102447
000240 6b 3a 3d be 6c 6f 10 3c 8a 88 19 3f fc 91 69 bf
       -0.18479316 0.008815628 0.5997397 -0.9123838
000250 99 68 1b bf 0d 5f 1c bf 8d 4e 84 39 7f ff 05 bf
       -0.6070648 -0.61082536 0.00025235527 -0.5234298
000260 74 ad 9f bd e0 d9 85 be 5c bd c1 3f db bd 09 c0
       -0.077967554 -0.26142788 1.5135913 -2.1522129
000270 ff ac 6e 3f 89 12 ac be 5c 47 97 3e ec e9 0c 3d
       0.9323272 -0.3360789 0.2954663 0.034402773
000280 be 04 ca be 46 55 88 bf d0 cc 9f be 6c f3 78 bf
       -0.39456743 -1.0651023 -0.31210947 -0.9724643
000290 7c 92 d2 bd 35 81 40 3e 68 5a 88 bd d8 7a 81 3e
       -0.10281846 0.18799289 -0.066578686 0.25289035
0002a0 74 f1 85 bf d6 22 89 bf 9f 5b 34 3e 4e 2c 49 bf
       -1.0464311 -1.0713756 0.17613076 -0.7858323
0002b0 ad 68 63 3f 7f 48 df 3c 8b 4c 8b 3d d4 4f 15 3e
       0.888316 0.027256249 0.06801709 0.14581233
0002c0 39 27 b6 3e 77 0c aa be a0 58 66 3f 42 b7 81 3e
       0.355768 -0.33212635 0.8997898 0.25335127
0002d0 ea 18 a2 be 3b 51 bd 3d cb 53 e3 3e 63 a6 b1 3d
       -0.31659633 0.09244009 0.44399866 0.08674314
0002e0 37 ef f7 3e 9a 3f 67 bd f5 d0 ce 3e 78 a9 0c be
       0.48424694 -0.05645714 0.40393797 -0.13736522
0002f0 e1 d6 7c bf a3 b0 49 be 4c 94 0d 3f 30 18 a8 3e
       -0.9876538 -0.19696288 0.5530441 0.32830954
000300 ed ac c3 be a1 6a 51 c0 2e 75 68 bf c1 98 00 bf
       -0.3821787 -3.272133 -0.908038 -0.50233084
000310 d4 51 96 3e cd 86 92 3c 63 a6 b8 3d ad 9a 97 bd
       0.29359305 0.017886544 0.09016111 -0.07402549
000320 99 a9 d1 3b f9 64 a7 bf fc 9b 0e c0 13 05 6c 3e
       0.0063983914 -1.307769 -2.2282705 0.2304881
000330 85 e9 1b 3f b0 cd b1 bc 12 b4 d8 3c 62 72 c8 3e
       0.609032 -0.021704525 0.026453052 0.39149767
000340 a7 b2 4f 3f b2 00 9e be 5c b8 c4 3e 96 1b 32 3e
       0.81131977 -0.30859905 0.38421905 0.17393336
000350 75 69 b2 be 1f 9e 22 3e bf cc 80 3e cf 26 9e 3d
       -0.34846082 0.15880631 0.2515621 0.07722246
000360 7b 63 85 be ad f5 15 bd 48 34 40 3e 9f 93 d9 be
       -0.2605246 -0.036611248 0.18769944 -0.42495438
000370 f8 7d df 3e 82 ff d4 3b 2e e2 6d 3e 60 36 64 3e
       0.43650794 0.0065001855 0.23230812 0.22286367
000380 64 cd 9d bf ba 8d 49 bd 90 9f 4d bf e0 dd 92 bd
       -1.2328305 -0.049207427 -0.803216 -0.071712255
000390 a7 71 66 be 75 1a 7b bd 67 ad 46 3e 7d f2 91 3e
       -0.22504292 -0.06130453 0.19402085 0.28505316
0003a0 ca e2 d3 3b f5 94 1e 3f c4 fd 9e 3e 7b 21 63 bf
       0.0064662443 0.6194604 0.31052983 -0.8872296
0003b0 86 58 a7 3c 30 95 5e bf 44 89 87 be 3a a5 c4 3e
       0.020427953 -0.8694639 -0.26471913 0.38407308
0003c0 fc 9b 5e bf eb 43 db 3e dd b9 b6 bf ab 25 05 bf
       -0.86956763 0.42825255 -1.4275471 -0.520106
0003d0 7d 09 8c 3c 9b 3e 52 bf d9 ac 49 3e 95 2e 7f be
       0.017094368 -0.8212678 0.19694842 -0.24920113
0003e0 4f be ca be 18 30 7e 3e e5 c1 b8 3e 8b 83 fd 3e
       -0.3959832 0.24823034 0.3608543 0.49514422
0003f0 83 97 a8 3f 3e 63 0f be 6e 45 ce be 79 12 ba be
       1.3171238 -0.14002702 -0.40287346 -0.3634222

hidden1.bias f4 [64]
000000 1f 84 97 be 6d 71 0e bf 8f 0c 0d 3f 26 8d 2c be
       -0.29592988 -0.55641824 0.5509729 -0.16850719
000010 76 f3 75 be 24 e7 13 be f5 bc 2a 3e dd ba 02 bf
       -0.24018654 -0.14443642 0.16673644 -0.5106638
000020 81 13 57 3f d1 5c a6 3e 40 bb 65 3f 83 a4 ad 3d
       0.84014136 0.32492688 0.89738846 0.08478644
000030 25 fe 3e bf b6 c9 e1 be 71 6e 7f 3f 95 d8 20 3e
       -0.74606544 -0.44099206 0.99777895 0.1570762
000040 9e e0 19 be a3 18 c4 be 22 6f 82 3f b4 c6 df 3d
       -0.15027091 -0.38300046 1.0190165 0.109265715
000050 79 e0 93 be 9e f5 61 be 97 dd c9 be e9 eb eb 3c
       -0.28882197 -0.22066352 -0.39426872 0.028799014
000060 81 b7 9e 3e 45 95 d7 be 67 ee a4 be 2b a7 72 be
       0.30999377 -0.4210607 -0.32213137 -0.23696582
000070 0d e6 cb bd 71 c3 94 bd d0 93 ac 3b 5e 93 c4 bd
       -0.09955988 -0.0726384 0.005266644 -0.095984206
000080 6a 17 4c 3e 7e 48 95 3d 21 28 68 be d4 91 ae 3e
       0.19930807 0.072892174 -0.22671558 0.34095633
000090 9c 56 a6 3d 70 b6 01 bd 97 be ab be 8e fd 38 3d
       0.08121988 -0.031668127 -0.33543846 0.045163684
0000a0 57 c6 b2 3e 22 46 3c be fd 88 4b 3e d0 df 7b 3e
       0.34916946 -0.18386129 0.19876476 0.24597096
0000b0 50 86 c0 3c 0a 5a bf 3e 1f d1 43 3f 52 26 37 3d
       0.023501545 0.37373382 0.7649097 0.04471428
0000c0 94 a6 9a bd fc 77 1f be 2a ff e8 3b 4d da d4 bd
       -0.075513035 -0.15573114 0.007110496 -0.103932
0000d0 48 6b 46 3d d0 6a ee bd d6 ce 52 3e d8 15 99 3d
       0.048442155 -0.116414666 0.20586714 0.074748695
0000e0 05 d4 b0 3e cf 57 18 3f 37 5f 4d 3f 2f d9 0b 3f
       0.34536758 0.59508985 0.8022341 0.5462827
0000f0 e2 ee 70 be 86 a3 7d be 1b 53 e4 3e cb 0e 17 3f
       -0.23528627 -0.2476941 0.44594654 0.5900695

hidden2.weight f4 [64, 64]
000000 b6 a6 a7 bd 29 9b 65 3f fd df 8a 3d 75 b7 1d 3f
       -0.081860945 0.8968988 0.067810036 0.6160806
000010 94 8e 1b 3d 3b da 88 3e c9 77 cd bd 35 d8 0c 3f
       0.03797777 0.26728997 -0.10032613 0.55017406
000020 c3 7b 2b 3e 30 37 f8 3e 3d cb 9c 3d 65 4b f5 3e
       0.1674643 0.48479605 0.07655952 0.47909084
000030 99 59 05 3f 86 d9 b4 3f 8b 06 d3 3c a0 c5 15 3f
       0.5208984 1.4128883 0.025759956 0.58504677
000040 1a 52 09 3e 0c 89 f3 3e 68 90 53 3e b4 03 bc be
       0.13410226 0.47565496 0.20660555 -0.36721575
000050 d3 cc f8 3e 0d cd 28 3f d3 05 87 3e 8e 96 e4 3e
       0.48593768 0.6593788 0.2637163 0.44646114
000060 c0 c7 17 bf 5d 33 41 3f c8 f2 52 3e 46 e5 87 3e
       -0.5928917 0.75469 0.20600426 0.2654211
000070 3f ab be 3e 7e b5 d4 bd 87 ce 78 3d a8 50 a8 be
       0.37240025 -0.103861794 0.060743835 -0.32874036
000080 8a d7 6a be 2c de aa 3e f9 ec 5b 3f 5f e8 f5 3e
       -0.22933784 0.3337263 0.85908467 0.48028848
000090 b0 6f fb be 5d 68 20 3f 30 9d 35 3d b0 87 f0 be
       -0.49108648 0.62659246 0.04433936 -0.4697852
0000a0 c6 d5 8c 3e c3 50 22 3e 31 cd ee 3e 9a f1 9c 3e
       0.27506846 0.1585112 0.46640924 0.30653077
0000b0 0a 5e 05 bf b7 18 94 3e c5 21 19 bd 30 8d ab 3b
       -0.5209662 0.28925106 -0.03738572 0.0052353367
0000c0 34 45 8e 3e 54 c7 0d 3f 20 b7 ab 3e 06 fb ea be
       0.27787173 0.55382276 0.3353815 -0.4589464
0000d0 fd 96 b8 bf cc 18 c6 3e 87 f7 d2 bd 0b 56 4b bf
       -1.4421078 0.38690794 -0.10301118 -0.79428166
0000e0 2c 22 36 bf a8 65 bf bd 24 99 07 3e 45 c0 8d bd
       -0.7114589 -0.09345561 0.13242012 -0.06921438
0000f0 07 ce e8 3d 1e 39 90 3e 26 d8 75 be 94 d4 c7 be
       0.113674216 0.28168577 -0.24008235 -0.39029372
000100 46 49 9b 3e da 6d cf be c9 59 05 3e 98 ce d2 3e
       0.3032934 -0.40513498 0.13022532 0.41173244
000110 3e 19 30 3d 7f 9d 3f 3f 5e f1 99 bf d4 68 33 3f
       0.042992823 0.74849695 -1.2026784 0.7008183
000120 e0 32 06 bf 5a d5 a9 be 85 78 8c 3e 45 4b cc be
       -0.5242138 -0.33170587 0.274357 -0.39901176
000130 77 8b f5 3e 79 5d 9c 3f 8f a1 8b bb 07 10 06 bf
       0.47957966 1.2216026 -0.0042612026 -0.52368206
000140 19 d1 2f 3f 2a 94 44 bd 59 1e fa be 53 bc 08 3f
       0.6867843 -0.047992863 -0.48851278 0.5341236
000150 cb bf c3 3e b6 da e1 3e 88 64 0b 3f e4 2f 33 3e
       0.38232264 0.44112176 0.54450274 0.17498738
000160 c9 4f ba 3d 8d 88 95 3f aa c7 ef 3e 36 17 cb 3e
       0.09097249 1.1682297 0.4683202 0.39666146
000170 87 b4 db 3e 53 cc 90 3d d0 29 b7 3d 20 89 13 3d
       0.4291117 0.07070222 0.08943522 0.036019444
000180 74 35 3a 3e 92 c7 01 3f 1a cf 33 3f 55 ca b6 be
       0.18184453 0.50695145 0.70237887 -0.35701242
000190 aa ef 31 be d5 f7 e4 3c ca 4f af 3d 9f de 61 bf
       -0.17376581 0.027950207 0.085601404 -0.8823032
0001a0 79 b1 3e 3c 16 c9 93 3e 68 1f e4 3d 7f 25 2e be
       0.0116389925 0.28864354 0.11138803 -0.17006491
0001b0 b0 87 d2 be 0e ca 5b be 79 da e4 bf 1d a7 bd be
       -0.41119146 -0.21463796 -1.7879173 -0.3704156
0001c0 a0 6c 7a 3e e7 16 80 3f 5a 87 8c 3e 20 ef 21 bf
       0.244555 1.0006989 0.27447015 -0.632555
0001d0 97 d6 d9 bf 27 10 3a 3f 5b 85 50 3d ab 6b 23 bf
       -1.7018613 0.72680897 0.050908428 -0.63836163
0001e0 59 40 6d 3e 69 36 b3 be c5 b9 ea 3d fa cf 81 3e
       0.23169078 -0.3500245 0.11461214 0.25353986
0001f0 6e 3d 9d 3e 91 86 8f 3e 7b da 01 bf 19 e7 24 3e
       0.3071093 0.28032354 -0.50724 0.16103782
000200 87 d1 7e 3f 3e 2e 21 3f 68 44 a8 3e f5 2c 32 3f
       0.99538463 0.62961185 0.3286469 0.6959985
000210 ae ab c3 3d 5a 37 9f 3e a1 5d 1d bf dc 35 12 3f
       0.0955423 0.31096917 -0.6147099 0.5711343
000220 83 5b 89 3e 02 74 d6 bd a5 8a 0b 3f b7 c7 ff 3d
       0.2682763 -0.104713455 0.5450843 0.124892645
000230 98 3b b6 3e 9c 7c 3c 3f 99 4a cd 3e dc 07 a0 3c
       0.3559234 0.7362764 0.40095976 0.019534998
000240 37 2a 48 3e 3d 21 28 3d 3a 9b a7 3d 05 01 0a be
       0.19547354 0.041047323 0.08183904 -0.13476951
000250 56 11 37 3f 27 60 88 3f 1a c6 14 3e c4 48 31 3d
       0.7151083 1.0654343 0.14528695 0.043282285
000260 70 b5 14 bf b6 6b 82 be 39 75 11 3f e3 12 0b 3f
       -0.5808935 -0.25472802 0.5681949 0.54325694
000270 91 f1 24 3f f1 4d 4b 3e 87 2d 95 be 9a 0d 9f be
       0.644311 0.19853951 -0.29136297 -0.31065065
000280 2e a1 65 bd 32 8a c8 be 07 58 8c 3f a1 ca 03 3f
       -0.056061916 -0.39167935 1.0964364 0.5148106
000290 0f 24 90 bf 98 09 28 3d cc f7 ca 3d 20 63 93 bf
       -1.1261004 0.041024774 0.09910545 -1.1514626
0002a0 37 9f eb 3e c6 b9 a7 3e 7b c2 19 3e bf 7e 53 3e
       0.4601991 0.3275892 0.15015595 0.20653819
0002b0 c9 41 d1 be ec a3 82 3e 45 d1 4a be f2 9b 09 3e
       -0.40870503 0.25515687 -0.19806392 0.13438395
0002c0 85 42 c6 be c3 38 a3 3e 37 b1 28 bc 2b 55 33 3a
       -0.38722625 0.31879243 -0.010296158 0.0006840999
0002d0 8d 66 cf bf fd ab 87 3e f4 2e b6 be 39 c3 52 bf
       -1.6203171 0.26498404 -0.35582697 -0.82329136
0002e0 4b f7 a3 bf 30 b6 aa 3d f6 17 cc 3d a3 e3 ad 3e
       -1.2809843 0.08335531 0.09965508 0.33962736
0002f0 5a ab ab be fa 1a ad 3d 44 11 83 be 09 a8 1a bf
       -0.33529168 0.08452411 -0.2559911 -0.6041265
000300 0d 4f 08 3d 42 de 06 3f 6d 60 82 3d 75 dc 10 3e
       0.033278514 0.5268289 0.06366048 0.14146598
000310 25 e0 9c 3e 9b d2 95 3e 95 ab 8a be 78 71 c7 3e
       0.3063976 0.29262242 -0.27084032 0.38953757
000320 ad 9c 4a 3e ed 41 ab 3b 18 be da 3d f8 24 12 3f
       0.1978633 0.005226365 0.10680789 0.5708766
000330 34 ee 81 3c 03 57 99 3f 99 bd 92 3d cf 6d 93 3e
       0.015860654 1.1979679 0.07165069 0.28794715
000340 44 dd 8f 3e 7e e4 3c 3f ea e6 5b bc 28 3d d1 be
       0.280985 0.7378615 -0.013421753 -0.4086697
000350 72 f5 03 3f 9b 90 9f 3e 55 9b 9a 3e 25 a2 d9 3e
       0.51546395 0.31165013 0.30196634 0.4250652
000360 f6 9e 37 bd 9a 16 9e 3f 8c 9a cc 3e 1c d7 f9 3d
       -0.04482933 1.2350647 0.3996166 0.12199232
000370 f0 1c 66 3e 76 6e 81 be fc 7f 11 3e a8 c8 32 bf
       0.22471976 -0.25279588 0.14208978 -0.6983743
000380 ea 4e f2 3d 77 7f 04 bf b6 77 26 3f 90 42 37 3e
       0.11831458 -0.51756996 0.65026414 0.17896485
000390 40 15 6a bf 83 7c 79 3f 06 90 fe 3d 3d 1b 41 bf
       -0.91438675 0.97455615 0.12429814 -0.7543219
0003a0 28 51 8b 3e 47 78 9c 3d 3c da de 3e be 9d ba 3e
       0.27210355 0.076401286 0.43525875 0.36448473
0003b0 c7 73 22 bf e3 e5 e9 3e 8b 4f 37 bf 91 33 87 3e
       -0.6345791 0.45683202 -0.7160575 0.2640653
0003c0 90 8e da bd 81 f4 2d 3f 2f 92 48 3e 3b 99 64 bf
       -0.10671723 0.6795121 0.19587015 -0.8929631
0003d0 12 ab 66 bf be 91 21 3f fa 74 56 be b5 1d 18 bf
       -0.9010478 0.6311301 -0.2094306 -0.5942033
0003e0 b1 00 d2 be 9e 4f d0 3b e1 0d a3 3d 3e bf 2d bd
       -0.41016153 0.0063571474 0.079616316 -0.04241871
0003f0 4a fb 8e 3e f1 b5 03 3f 49 49 6e be e3 f7 6b be
       0.27926093 0.51449496 -0.23270144 -0.2304378

hidden2.bias f4 [64]
000000 40 73 66 bd 46 e7 b1 be 07 fc e7 bc 1c 8f 86 3e
       -0.056262255 -0.3474676 -0.028318418 0.2628106
000010 e4 62 85 3e 33 f7 fc 3d 83 4b d5 3e ee 68 8e be
       0.2605201 0.12351837 0.41659173 -0.2781443
000020 32 c8 57 3c c6 4e cf bd a6 ad 0f 3e d7 94 05 be
       0.013170289 -0.10122447 0.14031085 -0.13045059
000030 6b 4f 43 bf 9a 7f 50 bd 60 c0 3b 3e 80 ea 75 3f
       -0.7629306 -0.05090294 0.18335104 0.96060944
000040 6d 4e 67 3e 78 23 ec 3e 1b 91 cc 3e 3c 13 b3 3c
       0.22588511 0.4612081 0.39954457 0.021859758
000050 d2 ab de 3d cd 2a 21 bd 24 fd e5 bc 5c 38 15 3f
       0.10872616 -0.03934746 -0.028074808 0.5828912
000060 5b 26 06 3d 00 06 37 3e d3 6b bb bd ff 96 92 bc
       0.032751422 0.17873383 -0.09151425 -0.017894266
000070 2e 09 b6 3d 0c 57 ef 3d d7 9c 4d be 97 bc 3e 3f
       0.0888847 0.11686525 -0.20079361 0.74506515
000080 dc 54 a7 bd 31 4c 42 3e 1e 31 c3 3b b5 42 f9 bd
       -0.081704825 0.18974377 0.005956783 -0.121709265
000090 2d 7e e9 3d fe b4 48 3d 8c e9 81 3e 7d 45 80 3e
       0.11401019 0.049000733 0.25373495 0.25053015
0000a0 81 c1 35 3d 20 ab 64 3d e5 9d ef bd 9c 86 c6 3e
       0.044373993 0.05582726 -0.11700038 0.38774574
0000b0 4e 60 8a be e8 7b c8 3d 12 d7 e3 be 51 2c fc bc
       -0.270266 0.09789258 -0.44500023 -0.03078285
0000c0 c5 f3 09 b9 05 39 e0 bc 8d 21 18 3d 88 94 77 be
       -0.0001315615 -0.027370939 0.03714137 -0.24177754
0000d0 c2 8c 44 3e ed 45 a2 3e 5c dd 9f 3e 2d 35 df 3d
       0.1919432 0.31693974 0.3122357 0.10898814
0000e0 4e a2 fd 3e 1b 02 b1 bd 0c 9d 02 3e 66 ce f1 3d
       0.4953789 -0.0864298 0.12755221 0.118069455
0000f0 39 df 57 bd ff fb 89 3b 40 07 97 3e 56 b4 30 3d
       -0.052703116 0.0042109485 0.2949772 0.04314073

out.weight f4 [4, 64]
000000 5e 86 00 bf c1 dd ad be 4e 4d 82 bf d3 df fa be
       -0.5020503 -0.33958247 -1.0179842 -0.4899889
000010 dc ed dd be 06 99 f9 be e6 34 8f 3f fa 14 ba bf
       -0.43345535 -0.4874956 1.1188018 -1.4537652
000020 b8 03 c7 bd 4c 0a 1d 3d 19 27 0c bf 16 36 93 bd
       -0.09717506 0.038339898 -0.5474716 -0.071880504
000030 8a 80 23 bf d0 46 da be 31 69 87 bf 3b a7 bc 3f
       -0.6386801 -0.4263215 -1.0578977 1.4738535
000040 79 90 c9 be 44 8b 57 3f 68 49 d3 be 64 a0 df be
       -0.39368036 0.8419688 -0.41266942 -0.43677056
000050 63 bb ed be 04 55 83 3d 89 37 da be 61 e3 02 c0
       -0.46432027 0.064127 -0.42620495 -2.045128
000060 9b 9a e3 be e2 43 71 3f a8 aa ba 3d aa fd 77 be
       -0.44453892 0.94244206 0.09114581 -0.24217859
000070 4a 05 14 bf cc 3a 05 bf 52 c4 fb bf 3d 99 12 40
       -0.5782057 -0.5204284 -1.9669287 2.290603
000080 8c c9 d2 bf b4 fc 0e bf 6d 8d c8 be d4 d4 bb bd
       -1.6467757 -0.55854344 -0.391704 -0.09171453
000090 e7 74 05 bf 57 23 db be 27 e1 a6 3d 98 a6 37 3f
       -0.52131504 -0.428004 0.08148413 0.71738577
0000a0 3b 36 00 bf 2f c6 45 be bb df 55 be 71 ae 83 3f
       -0.5008275 -0.19313882 -0.20886128 1.028761
0000b0 76 0a ac bf cc f3 05 bd cf 6f 5c be 11 52 01 bf
       -1.3440692 -0.032703206 -0.21527027 -0.5051585
0000c0 78 29 13 bf b5 39 25 3f 61 da 18 3d f8 57 15 bf
       -0.5748515 0.6454118 0.037317637 -0.58337355
0000d0 03 e5 05 c0 df ed 73 bf c0 e6 a4 be 29 e4 37 3f
       -2.0921028 -0.9528484 -0.32207298 0.7183252
0000e0 c1 10 80 bf b5 96 b6 bf 1e ad df be 12 16 fe be
       -1.0005113 -1.4264742 -0.43686765 -0.49626213
0000f0 12 fa 09 bf f0 86 a9 be e4 66 55 3f 57 89 0d bf
       -0.538972 -0.33110762 0.83360124 -0.5528769
000100 a0 14 f0 be 13 39 c5 be 2b 2c 5c bf ba bf 04 bf
       -0.46890736 -0.38520107 -0.86004895 -0.5185505
000110 ae 6c 14 bf a9 fd 05 bf 49 bb 88 3f d4 30 89 bf
       -0.5797833 -0.5234018 1.0682155 -1.0718026
000120 2a fc e3 3d ff 63 83 bd 4e e6 1c bf fc 9b 35 bd
       0.11132081 -0.06415557 -0.6128892 -0.04433821
000130 c9 b2 60 3e 38 8b 03 bf 74 6a 2b 3e 81 4a b1 3f
       0.21943201 -0.51384306 0.16739827 1.3850862
000140 de ee 03 bf d0 ce b1 3f 39 58 78 bf d0 eb 10 bf
       -0.5153636 1.3891239 -0.9700962 -0.5660982
000150 49 60 1a bf 36 d3 f1 3d ea ce 2d bf 24 65 db bf
       -0.6030317 0.118078634 -0.6789385 -1.7140241
000160 ec fc 0b bf c2 41 82 3f ae 16 69 3d d4 ea d1 be
       -0.54682803 1.0176318 0.056906395 -0.40999472
000170 48 b6 10 bf 50 34 1d bf 23 ad 03 bf 10 7a e3 3f
       -0.5652814 -0.6140795 -0.5143606 1.7771626
000180 6f 02 b6 bf 0e cf 44 bf ba 2f 03 bf cc 87 ff 3d
       -1.4219493 -0.7687844 -0.512447 0.12477073
000190 36 07 2d bf 4d 7f 1f bf 21 42 6f 3e 18 cd 92 3f
       -0.6758913 -0.6230362 0.2336507 1.146884
0001a0 34 da 2a bf 83 a7 17 bf 24 ab 3e bf 0c 92 a7 3f
       -0.667392 -0.5923998 -0.7447989 1.3091445
0001b0 50 3d 25 bf 60 1a 2f 3c 9d 76 2b bf 44 66 d2 be
       -0.6454668 0.010687441 -0.66977865 -0.41093647
0001c0 37 73 07 bf 45 ab 4f 3f 19 74 b6 bb 7c 4a 99 be
       -0.5291018 0.8112071 -0.005568039 -0.2993964
0001d0 14 bd 80 bf d4 37 90 bf 84 82 bf be 4d a9 17 3f
       -1.0057702 -1.1267037 -0.37404263 0.5924271
0001e0 fa 76 bf bf 63 df 29 bf 4d 21 20 bf 15 3f 1e bf
       -1.4958184 -0.66356486 -0.6255081 -0.61815006
0001f0 b2 e2 f6 be 21 33 b7 be 65 bc fe 3e 44 71 0b bf
       -0.4821983 -0.35781196 0.4975311 -0.54469705
000200 50 a8 5e bf ae d0 81 bf 08 34 55 bf a0 62 a4 be
       -0.86975574 -1.0141809 -0.8328252 -0.32106495
000210 74 93 e1 bd f5 2a f5 be af 48 b1 3f c7 22 ca 3d
       -0.110144526 -0.47884336 1.3850306 0.098699145
000220 03 86 8e 3d aa dd 98 3d 53 63 bf be c0 8a 0a 3d
       0.069591545 0.07464154 -0.37380466 0.03382373
000230 01 16 98 bf df d8 25 bf 41 ac bc bf d4 d9 02 40
       -1.1881715 -0.64784044 -1.4740068 2.0445452
000240 12 f5 d1 be 25 c0 b7 bd b6 33 c5 bf 64 be 19 bf
       -0.41007286 -0.089721955 -1.5406406 -0.6005614
000250 5c 11 c0 be ae c5 99 3d 5b f0 85 bf f5 fa 77 bf
       -0.37513244 0.075084075 -1.0463976 -0.96867305
000260 31 0f f3 be a5 50 ae 3f 6f b7 c7 bd cc 73 33 bf
       -0.47472528 1.3618361 -0.09751784 -0.70098567
000270 71 da 1b bf 31 80 ee be 2b f4 09 bf a7 e6 e6 3f
       -0.6088019 -0.46582177 -0.53888196 1.803914
000280 69 eb 60 bf ea 78 3f bf e4 d0 f8 be 90 32 4f bd
       -0.8785921 -0.74793875 -0.4859687 -0.05058533
000290 db b6 94 be 16 7c 16 bf b6 f2 40 3f 44 0f 65 3f
       -0.29045758 -0.5878309 0.7537035 0.8947642
0002a0 f8 f9 1e bf bc 7d 2e bf 7f ef 3c bf b6 ec 91 3f
       -0.6210017 -0.68160605 -0.7380294 1.1400363
0002b0 97 35 69 bf c0 fa 4d bb 86 c6 69 bf 21 d3 42 bf
       -0.91097397 -0.0031429976 -0.9131855 -0.7610341
0002c0 22 f9 d4 be 48 f2 cc be 6a 54 e8 bd 88 37 55 bf
       -0.41596323 -0.40028596 -0.11344226 -0.8328786
0002d0 0c ce 84 bf 54 76 9b bf 44 fe 4d be a4 3b 8c 3f
       -1.037538 -1.2145486 -0.20116526 1.0955701
0002e0 1a 44 0b bf 09 af f3 be eb ff 52 bf 9e 0e cb be
       -0.5440079 -0.4759448 -0.8242175 -0.3965959
0002f0 d0 e1 06 bf 49 7b 20 bf 39 0d 3e 3e 84 9b 22 bf
       -0.5268831 -0.6268812 0.18559732 -0.6351855
000300 4d 10 ea be 03 02 9d bf 88 eb 4a bf 25 c7 1a bf
       -0.45715562 -1.2266239 -0.7926564 -0.6046012
000310 41 d1 c1 be b9 de e5 be 8d 87 68 3f 90 74 28 bf
       -0.3785496 -0.44896486 0.90831834 -0.6580286
000320 50 47 93 3c f0 bc 33 bd 45 ce d1 be 7d f2 57 3c
       0.01797834 -0.043881357 -0.40977684 0.013180372
000330 1a 2b 5d bf af e8 0f bf c3 e5 f6 be 23 ba e8 3f
       -0.8639389 -0.5621442 -0.4822217 1.8181804
000340 94 58 cf be f3 09 8b 3f d9 9d 71 be 4b 45 d4 be
       -0.40497267 1.0862411 -0.2359537 -0.41459116
000350 0b 21 4c bf a6 cf a6 bd 74 bc dd be 97 b6 18 c0
       -0.7973792 -0.081450745 -0.4330784 -2.3861444
000360 2d cf d0 be e1 27 78 3f 9d 75 63 bd 11 24 63 bf
       -0.40783063 0.9693585 -0.055532087 -0.8872691
000370 9f 7e cb be 9a cd 03 bf 1b a3 59 bf 9d a9 d0 3f
       -0.39745042 -0.514856 -0.85014504 1.6301762
000380 de f9 d2 bf ab 3f 97 be 85 77 16 bf a4 61 9b bd
       -1.6482503 -0.29540762 -0.5877612 -0.07586983
000390 3a 71 23 be de ae cc be 73 79 2f be 9a da 0b 3f
       -0.15961161 -0.39977163 -0.17136173 0.54630435
0003a0 76 e2 ab be 75 70 37 bf c1 2e 5d be b8 b7 7b 3f
       -0.33571213 -0.7165597 -0.21599866 0.9832721
0003b0 9a eb 56 bf 90 64 f3 bd 93 a8 ae 3e 7c 43 12 bf
       -0.8395325 -0.11884415 0.34112987 -0.57134223
0003c0 15 ca c5 be 13 0a 80 bd e6 e4 f8 bd 1c 3b b7 be
       -0.3863074 -0.062519215 -0.12153034 -0.35787284
0003d0 a4 0f 81 bf 96 b5 fa be 49 12 61 bf 7a c1 88 3f
       -1.0082898 -0.48966664 -0.87918526 1.0684044
0003e0 e0 fb 28 bf ea b2 86 bf 6d 51 5f bf ee 7f e1 be
       -0.6600933 -1.052335 -0.8723362 -0.44042915
0003f0 3b c7 01 bf 94 dc 80 bf 96 98 c6 3f e1 25 ab be
       -0.50694627 -1.0067315 1.5515316 -0.33427337

out.bias f4 [4]
000000 1e af ae 3d f5 f9 4c be 52 54 14 3f a1 08 6f 3e
       0.08529495 -0.20017226 0.5794116 0.23343135
